…
218956/218956 [==============================] - 201s 920us/step - loss:0.1600 - acc:0.9571 - val_loss:0.1568 - val_acc:0.9573                                
Epoch 5/5
218956/218956 [==============================] - 194s 887us/step - loss:0.1571 - acc:0.9580 - val_loss:0.1515 - val_acc:0.9588                                 
93839/93839 [==============================] - 30s 319us/step

Test score:0.151537266896435

Test accuracy:0.9587698078624026
Trying a stacked LSTM model
Layer (type)                 Output Shape              Param # 
_________________________________________________________________
Lstm_5 (LSTM)                (None, 30, 128)           131584                              
Lstm_6 (LSTM)                (None, 30, 64)            49408                               
Lstm_7 (LSTM)                (None, 32)                12416
batch_normalization_2 (Batch (None, 32)                128
dense_6 (Dense)              (None, 16)                528
batch_normalization_3 (Batch (None, 16)                64
dense_7 (Dense)              (None, 1)                 17                                  
	                          Total params: 194,145
Trainable params: 194,049
Non-trainable params: 96


Train...

Train on 218956 samples, validate on 93839 samples     Epoch 1/5
218956/218956 [==============================] - 497s 2ms/step - loss:0.2910 - acc:0.8981 - val_loss:0.1835 - val_acc:0.9487                                  
Epoch 2/5
218956/218956 [==============================] - 510s 2ms/step - loss:0.1753 - acc:0.9513 - val_loss:0.1609 - val_acc:0.9566                                  
…
218956/218956 [==============================] - 471s 2ms/step - loss:0.1585 - acc:0.9571 - val_loss:0.1537 - val_acc:0.9585                                  
Epoch 5/5
218956/218956 [==============================] - 488s 2ms/step - loss:0.1553 - acc:0.9579 - val_loss:0.1490 - val_acc:0.9596                                  
93839/93839 [==============================] - 62s 658us/step

Test score:0.1490070686266086

Test accuracy:0.9596223318662817
Trying a stacked GRU version of above model
Layer (type)                 Output Shape              Param # 
_________________________________________________________________
gru_1 (GRU)                  (None, 30, 128)           98688
gru_2 (GRU)                  (None, 30, 64)            37056
gru_3 (GRU)                  (None, 32)                9312
batch_normalization_4 (Batch (None, 32)                128
dense_8 (Dense)              (None, 16)                528
batch_normalization_5 (Batch (None, 16)                64
dense_9 (Dense)              (None, 1)                 17                                  
=                          Total params: 145,793
Trainable params: 145,697
Non-trainable params: 96


Train...

Train on 218956 samples, validate on 93839 samples     Epoch 1/5
218956/218956 [==============================] - 391s 2ms/step - loss:0.2903 - acc:0.8982 - val_loss:0.1701 - val_acc:0.9532                                  
Epoch 2/5
218956/218956 [==============================] - 385s 2ms/step - loss:0.1660 - acc:0.9548 - val_loss:0.1576 - val_acc:0.9582                                  
…
