_________________________________________________________________
Layer (type)                 Output Shape              Param #   
=================================================================
lstm_1 (LSTM)                (None, 32)                8320      
_________________________________________________________________
dense_1 (Dense)              (None, 1)                 33        
=================================================================
Total params: 8,353
Trainable params: 8,353
Non-trainable params: 0
_________________________________________________________________
Confusion Matrix on test set:
		true negatives = 34450
		false positives = 11956
		false negatives = 513
		true positives = 172037
		accuracy = 94.30524854308628

__________________________________
_________________________________________________________________
Layer (type)                 Output Shape              Param #   
=================================================================
lstm_2 (LSTM)                (None, 32)                8320      
_________________________________________________________________
dense_2 (Dense)              (None, 1)                 33        
=================================================================
Total params: 8,353
Trainable params: 8,353
Non-trainable params: 0
_________________________________________________________________
Confusion Matrix on test set:
		true negatives = 35792
		false positives = 10614
		false negatives = 743
		true positives = 171807
		accuracy = 94.81311313688595

__________________________________
_________________________________________________________________
Layer (type)                 Output Shape              Param #   
=================================================================
lstm_3 (LSTM)                (None, 128)               82432     
_________________________________________________________________
dense_3 (Dense)              (None, 1)                 129       
=================================================================
Total params: 82,561
Trainable params: 82,561
Non-trainable params: 0
_________________________________________________________________
Confusion Matrix on test set:
		true negatives = 36480
		false positives = 9926
		false negatives = 648
		true positives = 171902
		accuracy = 95.17071923126107

__________________________________
_________________________________________________________________
Layer (type)                 Output Shape              Param #   
=================================================================
lstm_4 (LSTM)                (None, 128)               82432     
_________________________________________________________________
dense_4 (Dense)              (None, 16)                2064      
_________________________________________________________________
batch_normalization_1 (Batch (None, 16)                64        
_________________________________________________________________
dense_5 (Dense)              (None, 1)                 17        
=================================================================
Total params: 84,577
Trainable params: 84,545
Non-trainable params: 32
_________________________________________________________________
Confusion Matrix on test set:
		true negatives = 36372
		false positives = 10034
		false negatives = 645
		true positives = 171905
		accuracy = 95.1227643910192

__________________________________
_________________________________________________________________
Layer (type)                 Output Shape              Param #   
=================================================================
lstm_5 (LSTM)                (None, 30, 128)           82432     
_________________________________________________________________
lstm_6 (LSTM)                (None, 30, 64)            49408     
_________________________________________________________________
lstm_7 (LSTM)                (None, 32)                12416     
_________________________________________________________________
batch_normalization_2 (Batch (None, 32)                128       
_________________________________________________________________
dense_6 (Dense)              (None, 16)                528       
_________________________________________________________________
batch_normalization_3 (Batch (None, 16)                64        
_________________________________________________________________
dense_7 (Dense)              (None, 1)                 17        
=================================================================
Total params: 144,993
Trainable params: 144,897
Non-trainable params: 96
_________________________________________________________________
Confusion Matrix on test set:
		true negatives = 36383
		false positives = 10023
		false negatives = 597
		true positives = 171953
		accuracy = 95.1497104441075

__________________________________
_________________________________________________________________
Layer (type)                 Output Shape              Param #   
=================================================================
gru_1 (GRU)                  (None, 30, 128)           61824     
_________________________________________________________________
gru_2 (GRU)                  (None, 30, 64)            37056     
_________________________________________________________________
gru_3 (GRU)                  (None, 32)                9312      
_________________________________________________________________
batch_normalization_4 (Batch (None, 32)                128       
_________________________________________________________________
dense_8 (Dense)              (None, 16)                528       
_________________________________________________________________
batch_normalization_5 (Batch (None, 16)                64        
_________________________________________________________________
dense_9 (Dense)              (None, 1)                 17        
=================================================================
Total params: 108,929
Trainable params: 108,833
Non-trainable params: 96
_________________________________________________________________
Confusion Matrix on test set:
		true negatives = 36566
		false positives = 9840
		false negatives = 269
		true positives = 172281
		accuracy = 95.38309066661795

__________________________________
_________________________________________________________________
Layer (type)                 Output Shape              Param #   
=================================================================
lstm_8 (LSTM)                (None, 30, 128)           82432     
_________________________________________________________________
lstm_9 (LSTM)                (None, 30, 128)           131584    
_________________________________________________________________
lstm_10 (LSTM)               (None, 30, 128)           131584    
_________________________________________________________________
lstm_11 (LSTM)               (None, 128)               131584    
_________________________________________________________________
dense_10 (Dense)             (None, 128)               16512     
_________________________________________________________________
batch_normalization_6 (Batch (None, 128)               512       
_________________________________________________________________
dense_11 (Dense)             (None, 128)               16512     
_________________________________________________________________
batch_normalization_7 (Batch (None, 128)               512       
_________________________________________________________________
dense_12 (Dense)             (None, 64)                8256      
_________________________________________________________________
batch_normalization_8 (Batch (None, 64)                256       
_________________________________________________________________
dense_13 (Dense)             (None, 32)                2080      
_________________________________________________________________
batch_normalization_9 (Batch (None, 32)                128       
_________________________________________________________________
dense_14 (Dense)             (None, 1)                 33        
=================================================================
Total params: 521,985
Trainable params: 521,281
Non-trainable params: 704
_________________________________________________________________
Confusion Matrix on test set:
		true negatives = 37297
		false positives = 9109
		false negatives = 1210
		true positives = 171340
		accuracy = 95.2871809861342

__________________________________
_________________________________________________________________
Layer (type)                 Output Shape              Param #   
=================================================================
lstm_12 (LSTM)               (None, 32)                20608     
_________________________________________________________________
dense_15 (Dense)             (None, 1)                 33        
=================================================================
Total params: 20,641
Trainable params: 20,641
Non-trainable params: 0
_________________________________________________________________
Confusion Matrix on test set:
		true negatives = 13437
		false positives = 32969
		false negatives = 4
		true positives = 172546
		accuracy = 84.9408100257586

__________________________________
_________________________________________________________________
Layer (type)                 Output Shape              Param #   
=================================================================
lstm_13 (LSTM)               (None, 32)                20608     
_________________________________________________________________
dense_16 (Dense)             (None, 1)                 33        
=================================================================
Total params: 20,641
Trainable params: 20,641
Non-trainable params: 0
_________________________________________________________________
Confusion Matrix on test set:
		true negatives = 37522
		false positives = 8884
		false negatives = 143
		true positives = 172407
		accuracy = 95.87725387749137

__________________________________
_________________________________________________________________
Layer (type)                 Output Shape              Param #   
=================================================================
lstm_14 (LSTM)               (None, 128)               131584    
_________________________________________________________________
dense_17 (Dense)             (None, 1)                 129       
=================================================================
Total params: 131,713
Trainable params: 131,713
Non-trainable params: 0
_________________________________________________________________
Confusion Matrix on test set:
		true negatives = 13550
		false positives = 32856
		false negatives = 55
		true positives = 172495
		accuracy = 84.96912621713952

__________________________________
_________________________________________________________________
Layer (type)                 Output Shape              Param #   
=================================================================
lstm_15 (LSTM)               (None, 128)               131584    
_________________________________________________________________
dense_18 (Dense)             (None, 16)                2064      
_________________________________________________________________
batch_normalization_10 (Batc (None, 16)                64        
_________________________________________________________________
dense_19 (Dense)             (None, 1)                 17        
=================================================================
Total params: 133,729
Trainable params: 133,697
Non-trainable params: 32
_________________________________________________________________
Confusion Matrix on test set:
		true negatives = 37769
		false positives = 8637
		false negatives = 173
		true positives = 172377
		accuracy = 95.97636054732457

__________________________________
_________________________________________________________________
Layer (type)                 Output Shape              Param #   
=================================================================
lstm_16 (LSTM)               (None, 30, 128)           131584    
_________________________________________________________________
lstm_17 (LSTM)               (None, 30, 64)            49408     
_________________________________________________________________
lstm_18 (LSTM)               (None, 32)                12416     
_________________________________________________________________
batch_normalization_11 (Batc (None, 32)                128       
_________________________________________________________________
dense_20 (Dense)             (None, 16)                528       
_________________________________________________________________
batch_normalization_12 (Batc (None, 16)                64        
_________________________________________________________________
dense_21 (Dense)             (None, 1)                 17        
=================================================================
Total params: 194,145
Trainable params: 194,049
Non-trainable params: 96
_________________________________________________________________
Confusion Matrix on test set:
		true negatives = 37607
		false positives = 8799
		false negatives = 58
		true positives = 172492
		accuracy = 95.95489504740678

__________________________________
_________________________________________________________________
Layer (type)                 Output Shape              Param #   
=================================================================
gru_4 (GRU)                  (None, 30, 128)           98688     
_________________________________________________________________
gru_5 (GRU)                  (None, 30, 64)            37056     
_________________________________________________________________
gru_6 (GRU)                  (None, 32)                9312      
_________________________________________________________________
batch_normalization_13 (Batc (None, 32)                128       
_________________________________________________________________
dense_22 (Dense)             (None, 16)                528       
_________________________________________________________________
batch_normalization_14 (Batc (None, 16)                64        
_________________________________________________________________
dense_23 (Dense)             (None, 1)                 17        
=================================================================
Total params: 145,793
Trainable params: 145,697
Non-trainable params: 96
_________________________________________________________________
Confusion Matrix on test set:
		true negatives = 37428
		false positives = 8978
		false negatives = 65
		true positives = 172485
		accuracy = 95.86994647326404

__________________________________
_________________________________________________________________
Layer (type)                 Output Shape              Param #   
=================================================================
lstm_19 (LSTM)               (None, 30, 128)           131584    
_________________________________________________________________
lstm_20 (LSTM)               (None, 30, 128)           131584    
_________________________________________________________________
lstm_21 (LSTM)               (None, 30, 128)           131584    
_________________________________________________________________
lstm_22 (LSTM)               (None, 128)               131584    
_________________________________________________________________
dense_24 (Dense)             (None, 128)               16512     
_________________________________________________________________
batch_normalization_15 (Batc (None, 128)               512       
_________________________________________________________________
dense_25 (Dense)             (None, 128)               16512     
_________________________________________________________________
batch_normalization_16 (Batc (None, 128)               512       
_________________________________________________________________
dense_26 (Dense)             (None, 64)                8256      
_________________________________________________________________
batch_normalization_17 (Batc (None, 64)                256       
_________________________________________________________________
dense_27 (Dense)             (None, 32)                2080      
_________________________________________________________________
batch_normalization_18 (Batc (None, 32)                128       
_________________________________________________________________
dense_28 (Dense)             (None, 1)                 33        
=================================================================
Total params: 571,137
Trainable params: 570,433
Non-trainable params: 704
_________________________________________________________________
Confusion Matrix on test set:
		true negatives = 46405
		false positives = 1
		false negatives = 171398
		true positives = 1152
		accuracy = 21.719888927455745

__________________________________
time taken for running the notebook:
 8.0 hours, 46.0 minutes and 1.588961124420166 seconds
_________________________________________________________________
Layer (type)                 Output Shape              Param #   
=================================================================
lstm_1 (LSTM)                (None, 30, 128)           82432     
_________________________________________________________________
lstm_2 (LSTM)                (None, 30, 64)            49408     
_________________________________________________________________
lstm_3 (LSTM)                (None, 32)                12416     
_________________________________________________________________
batch_normalization_1 (Batch (None, 32)                128       
_________________________________________________________________
dense_1 (Dense)              (None, 16)                528       
_________________________________________________________________
batch_normalization_2 (Batch (None, 16)                64        
_________________________________________________________________
dense_2 (Dense)              (None, 1)                 17        
=================================================================
Total params: 144,993
Trainable params: 144,897
Non-trainable params: 96
_________________________________________________________________
